models/scr_rul_prediction_model.pth (torch, 233864 bytes, 14 tensors)

lstm.weight_ih_l0 f4 [256, 11]
00000000: 2106 31be ae55 7bbe 7d6c fc3d 03c8 24be
00000010: 3dd5 61be 8a17 8fbe 9681 2cbe be5c 06be
00000020: 766b b9bd dbb7 a8be 00bb 9f3e 1453 6b3d
00000030: 9a93 343e 5de0 ccbd bd66 8ebe 56d5 8d3d
00000040: 93fa 5b3c 50b5 5dbe 4e63 b3bd ec2f b7bd
00000050: 3780 45bd e0f9 c1bd 6937 8cbe ecab c63c
00000060: 7588 36be 9518 123d 40a7 b63d 69b3 adbd
00000070: 1ace 853d 6643 c9bd b09b 9dbe b187 fabd
00000080: 3591 12be a04e 883d 100c 65bd 3a19 a9be
00000090: cdda c6bd a470 ad3d c222 113d d5c6 32be
000000a0: 78a9 ba3e dd36 5a3e c971 c33d e64a e03b
000000b0: 757a 21bc f284 a63d f9a3 3fbe d207 813e
000000c0: eb66 833d 2e9f a63d 4a5b cd3d 4972 0c3e
000000d0: 8065 073e a8bb 83be 441c 313d 8e19 7ebd
000000e0: db62 1dbe c5de c13b abf4 153e c095 023e
000000f0: f1eb f53d 16c8 9abc 038d 2f3c 3df5 71be
00000100: 032f 7e3d 358f 2dbc fe2c abbb 12ad 253d
00000110: fb73 58bd 4db5 9c3e cd5e 07be a3fc 233d
00000120: 393c c0bd 7a29 ac3e 82c0 8c3e 25a9 3ebe
00000130: 2a3b 303e 6268 b43d ea94 823e 6d7a dfbb
00000140: 26ba df3d 0c63 c33d 2e80 0b3e 948b 153e
00000150: 5e11 853d 1514 8d3d 6bb2 9bbe b8ae 9abd
00000160: 24dc b0be a891 bdbe 4990 81be 761f 7d3e
00000170: 3184 64bd 3ee6 60be 367e 7fbe 77da 803e
00000180: 988e b1bc 4648 dd3d 56d6 93bd 1a0e bbbe
00000190: d1f0 6b3c 7027 e0bd 5a36 3bbe 2fa0 20bc
000001a0: 833e 00be 4ca6 963c 5256 fe3c 239f 20be
000001b0: 3bf4 49be 2ed9 36be 7b9e 9a3e 8ea9 de3d
000001c0: 4e1d 7c3c f406 0b3f 953b 1e3e b14e 903d
000001d0: 17a2 d43d f678 b4bd 047c efbd e3cb 113e
000001e0: 5ed0 c53e 4bdb 1cbe 9248 0cbe 4e9c ea3d
000001f0: ee45 bcbe f956 2abe e311 30be d06f fc3c
00000200: 4f92 c7bd 9d56 00be b396 d3be 9e4b acbe
00000210: c3f9 27bd ca84 3dbe c394 1abc 1f44 783e
00000220: 5b7e 343c 363f 55bd ed39 d4bd 5464 5fbd
00000230: 70fe 78be da7a 2cbe 5aa9 87bd 9ff9 ba3e
00000240: 5624 92bc a3e3 233e b935 11be 2df3 50be
00000250: 9e25 33be 922e 1bbe 2211 27be 9317 2cbe
00000260: 7abe f63d 46c4 b63e 1695 ac3e 5740 0d3d
00000270: 21c9 763d f968 98bd 8d77 abbd a20d f9bd
00000280: 4511 313e dd38 9cbe 2956 33be 09bb 9bbe
00000290: 2c24 d83d 9fd8 2ebd 7cc3 8d3b f677 0d3d
000002a0: 20f9 d3be 7746 44bc 2aa6 bc3d abfc 0b3d
000002b0: ca21 bd3d c8ce 8bbe 3c18 5fbe 3853 ca3d
000002c0: cfcc b7bd af11 d4bd e01a 263e 2466 7cbe
000002d0: b356 bf3c d31f 803c f2ad 893d f6ba c33e
000002e0: 9951 2b3d c58b aa3d e3c1 7e3e b370 6dbe
000002f0: 2f4d 09be a155 db3d 3389 29be 3f8e 9fbd
00000300: 8958 c1bd 3aa1 1ebe 153e f9bd bb37 afbe
00000310: f205 c5be adc7 89be a84c 22be 1074 e13c
00000320: 4d28 7bbe bdf6 af3e 1e64 76bc e564 823d
00000330: 4308 7ebe 67a3 a83e 225c 62be ac6c 923e
00000340: 0acf 863c d1a5 1dbe c556 e4bc 0e58 20be
00000350: 7493 91be 962b d23d 5f8c 3dbd 54c5 ffbb
00000360: 1453 193e 98b9 3cbd 2b48 3c3c fa91 2cbc
00000370: 50e7 673e d257 8f3d c773 903e 034d c83d
00000380: 66c3 6dbb 24ff 863a 70a6 29be 707b bdbe
00000390: f07f 2abe 703d 89bb 124e 493c 9b2f 8b3d
000003a0: 99f5 593c d185 3dbe acc7 163e c741 1e3e
000003b0: b1bf ed3d d234 603e 1a5d f5be 1ffa b2be
000003c0: 8c0f c4be 1be1 3dbe 1b6b 85bc 3c20 48ba
000003d0: 1da1 d6bc 8e51 d0bd eb51 043b 8aad 11be
000003e0: be75 3fbe d5cc 073d 87e8 d43c 56e6 dcbd
000003f0: c2fb 963d 2ad3 97bd 5df1 94bd 1d3d 83be
-0.17287494 -0.24544403 0.1232538 -0.16091923 -0.22054 -0.27947646 -0.16846308 -0.13121316
-0.090537 -0.3295277 0.31197357 0.057452276 0.1763443 -0.100037314 -0.27812758 0.06925456
0.013426441 -0.21651196 -0.08759175 -0.08944687 -0.04821798 -0.09471488 -0.27386025 0.0242519
-0.17825492 0.035667975 0.08918619 -0.084814854 0.065334514 -0.09827308 -0.30782843 -0.12232912
-0.14313205 0.066556215 -0.055919707 -0.3302706 -0.09709702 0.0846875 0.03543354 -0.17458661
0.3645742 0.21309991 0.09543187 0.006844866 -0.009855856 0.08130826 -0.18714894 0.2520128
0.064161144 0.0813583 0.10027178 0.13715471 0.13222313 -0.25729108 0.043239847 -0.06203609
-0.15369742 0.005916449 0.14644115 0.12752438 0.12007893 -0.018894237 0.010714772 -0.23628707
0.062056553 -0.010593225 -0.0052238693 0.040448256 -0.052844983 0.30607072 -0.13219757 0.040035855
-0.093864866 0.33625394 0.27490622 -0.18619211 0.1721007 0.08808972 0.25504237 -0.006820014
0.10924177 0.09540376 0.13623115 0.14604026 0.06497453 0.06888596 -0.3040956 -0.07552856
-0.34542954 -0.3702519 -0.25305393 0.24719033 -0.05579013 -0.2196283 -0.2495049 0.25166675
-0.02167444 0.10804801 -0.07218616 -0.36534196 0.014400677 -0.10945022 -0.18282452 -0.009803816
-0.12523846 0.018389843 0.03104702 -0.15685706 -0.19722073 -0.17856285 0.30199036 0.10872184
0.015387846 0.54307485 0.15452416 0.07046259 0.10382479 -0.08812134 -0.11693576 0.14237933
0.38635534 -0.15318029 -0.13699558 0.11455594 -0.36772102 -0.1663474 -0.17194323 0.030815035
-0.09744703 -0.1253304 -0.41325912 -0.3365144 -0.041009676 -0.18507686 -0.009434882 0.24244736
0.011016454 -0.052062236 -0.10362611 -0.05453904 -0.2431581 -0.16843739 -0.06624098 0.3651857
-0.017839592 0.16004805 -0.1418065 -0.20405264 -0.17494819 -0.15154484 -0.1631513 -0.16805868
0.12048049 0.3569662 0.33707494 0.034485187 0.060250405 -0.07441897 -0.08372412 -0.121608034
0.17291744 -0.30512133 -0.17513336 -0.30416134 0.10553774 -0.042687055 0.004326282 0.03453823
-0.41401005 -0.011979691 0.09211381 0.03417651 0.092349604 -0.273062 -0.21786588 0.09879154
-0.08974611 -0.103549354 0.1622119 -0.24648339 0.023356771 0.015640175 0.067226306 0.38228577
0.041825864 0.0832744 0.2487865 -0.23187523 -0.1340835 0.10709692 -0.16556244 -0.07790803
-0.09440715 -0.1549119 -0.12170044 -0.34222206 -0.38481098 -0.26910153 -0.15849555 0.027521163
-0.24527092 0.34367934 -0.015038518 0.063669 -0.24807839 0.32937166 -0.22105458 0.28598535
0.016456146 -0.15395285 -0.027873406 -0.1565859 -0.2843281 0.102622196 -0.046276446 -0.007805506
0.14973098 -0.046075433 0.011491816 -0.01053285 0.22646832 0.06999172 0.2821333 0.09780314
-0.0036279797 0.0010299427 -0.16567397 -0.37008238 -0.16650367 -0.004188232 0.01228668 0.067961894
0.013303184 -0.18508078 0.14724606 0.1545478 0.11608828 0.2189515 -0.47922593 -0.34956452
-0.3829311 -0.18542902 -0.016286423 -0.0007634198 -0.026199872 -0.10171805 0.0020190428 -0.14226356
-0.18697259 0.033154327 0.025989784 -0.107861206 0.07372238 -0.07413323 -0.07272599 -0.25632563

lstm.weight_hh_l0 f4 [256, 64]
00000000: 9a96 053e 189b 7cbb f3c1 16bc be16 ba3c
00000010: 1f70 2dbb aa7a 5abd 58b5 02be d498 dabc
00000020: cf85 183e 51b8 2b3d d0d7 9ebb 1a63 743c
00000030: 9d8f bebd ad3f 22be dac5 aabd 77b9 983d
00000040: ac45 72bd 65cb 22bd 1409 323d 5f47 4abe
00000050: 0ed8 593e 76ba e83d dab4 cd3d 0d34 a53c
00000060: 59b4 fb3d f20f 9cbe 5d3d 073e df7f bf3d
00000070: fbcd 3fbe 7dff c93d 7ffc 8c3e 22d8 11bd
00000080: 0130 d23d e9cc 383e f554 163e e0be 0fbc
00000090: 5163 073e 7a3e bfbb bcf9 83be 6c34 a43d
000000a0: fafe 84bc 0c83 7bbd a950 6abe 2d53 0fbe
000000b0: 5a8b 293c d90e 0d3d 1069 d13d 39f3 42bc
000000c0: c971 babd e09f 82bd 91cf b03d 663e f23d
000000d0: 4a8d a7bd a908 343d ddf7 74bd 01f6 53bd
000000e0: f371 0f3e 3874 04be 9367 653e bb01 8b3d
000000f0: 70e1 de3b 2fb1 fa3d a263 813d 1770 14be
00000100: 394e a7bd bd8e 38be f01c 55bd 56f7 e5bd
00000110: e69d 7e3d b56e 6c3e 4c03 0f3e 0b25 663d
00000120: 794d 0c3e bae8 b33c 1ccd e73d f093 f7bb
00000130: 3b55 2f3e 0232 38bc 5cba 04be d021 113d
00000140: 064f cfbd 305a 72bc 22d1 033e e06c fe3d
00000150: d87f cfbd c1fc 593d 6d1d 7abe 7353 e83d
00000160: a1d1 053e 2a3b c5bd 9051 ea3d edab ffbd
00000170: 7f83 1abe 6693 4f3e 301c 1abe cec2 613e
00000180: 13d2 8ebe b5e8 183e 14aa 47be 8774 aa3c
00000190: e046 573c b0e6 c9bd 39bf 5ebe b86e a23e
000001a0: 2682 023d d79c 34be 3360 c2bd 2d1a 563e
000001b0: 53ce 303e f2da 0d3e 30db 7fbe 12ef 8cbe
000001c0: 09ac fc3d 3348 8c3d c4e5 a83e 9d8e c3bd
000001d0: d024 243d 6532 b3bc f4ca 283e 039a 1d3e
000001e0: 169c 1dbe f1ff 6e3d 2696 32bd dabe 9f3e
000001f0: c54e 1b3d 3bb9 033e e722 4b3c 58f2 31be
00000200: 733e 1d3e c54a 1b3d 4303 d63d 60db 5bbe
00000210: 69ca 113e 13dd 84be 8f7e 8dbe 0841 22be
00000220: be17 d73d 1408 e93d 9b1c 833e 8f87 d03d
00000230: cf2c c8bd 570b b5bd e2f5 d9bd 3a14 39be
00000240: 3fac 03be 9d30 803e b727 71be cb44 76be
00000250: 0653 923e 9f1e 273e c76a f73d c547 173e
00000260: 1073 1a3e 7f64 af3a 7a22 4d3d 7912 26be
00000270: 8d20 b1be 4793 2d3d 1163 e5bd c839 4b3e
00000280: 1008 513d 1277 813e b1cc 6e3e 82d0 733e
00000290: df3c 703e 66bd 60be ad25 52be 1cde ce3d
000002a0: 8d50 04be 5afa 1c3e 3085 a63d 78ae 29be
000002b0: bb66 8c3e 5e2f ab3c 37e8 b13d 5f1e 003e
000002c0: 953c 79be 7ab9 52be 133e 953d 0cc2 5ebe
000002d0: 0187 dbbd 7871 8cbe 51db 063e 5351 56be
000002e0: 69a5 1b3e 4335 95be 3123 0cbe da8e fb3c
000002f0: c61d 9dbe fcd0 a83e bb3d 9e3d 5577 3dbe
00000300: 898a a0bd 7b63 3abe a5db bd3c 4ff7 103d
00000310: 5a17 85be 0ae9 cc3d 016f 333d 246d 213e
00000320: 6fac 323e 7121 6dbe 5641 77bd 5708 dabd
00000330: 87d6 c4bd 1aee 073e 8835 af3e faf2 84bd
00000340: 9455 5a3d ff3c 21be 3da2 5f3e 00dc 983e
00000350: acaa 143d ac93 38bd 8fd0 9ebe 3df9 09be
00000360: cc15 4bbe f358 98bd 9bcc 29bd 50eb 6c3d
00000370: 1581 793e 8e9d 603e 9092 2c3e 6d5a 9c3c
00000380: 3cec d0bd 9736 bbbd 688f b0bd bd25 163d
00000390: 850f eabc 19ef 5abc e6e7 b03a 19eb 893c
000003a0: ac1a 05bd 3eac 95be c8f9 2e3d 12f2 f53d
000003b0: 74a4 b3bc 1c44 a63d 3431 4cbe c954 d0bd
000003c0: fa69 ae3e 703f 113e 5f03 a83e 1a03 8a3d
000003d0: 8387 c33d a92d 453e 748d 4c3d eca4 043e
000003e0: ca40 94be 74c4 ce3d e148 953d d21f 113e
000003f0: 9349 b03d 61bf 00bf eb31 8d3d ca5d abbd
0.13045731 -0.0038544592 -0.009201515 0.022715922 -0.0026464534 -0.053339638 -0.1276449 -0.026684202
0.14894794 0.041923825 -0.004847504 0.014916206 -0.09304736 -0.15844603 -0.083385184 0.074572496
-0.059148476 -0.039744753 0.04346569 -0.19753788 0.21273825 0.113636896 0.1004426 0.020166421
0.12290258 -0.30480915 0.13207002 0.09350561 -0.18730919 0.09863184 0.2753639 -0.03560651
0.10263062 0.18046917 0.14680846 -0.0087735355 0.1322148 -0.005836305 -0.2577647 0.08017811
-0.016234864 -0.061404273 -0.22882332 -0.13996573 0.010348165 0.034437988 0.10225117 -0.011898809
-0.09103734 -0.0637815 0.0863334 0.11828308 -0.081812456 0.04395357 -0.059806693 -0.05174828
0.14008312 -0.12934959 0.22402792 0.067874394 0.0068017766 0.12240826 0.063178316 -0.14495884
-0.08169217 -0.180232 -0.05202955 -0.11228816 0.062162302 0.23089106 0.13966101 0.05618767
0.13701428 0.021961559 0.113184184 -0.0075554773 0.17122357 -0.011242392 -0.12961715 0.035432637
-0.101224944 -0.01479201 0.12872747 0.1242311 -0.10131806 0.05321956 -0.24425288 0.11344042
0.13068248 -0.09630425 0.11441338 -0.12483964 -0.15089224 0.20271072 -0.15049815 0.22046968
-0.2789465 0.1493252 -0.19498473 0.020807518 0.0131394565 -0.09858453 -0.21752633 0.31725097
0.0318624 -0.17637955 -0.09491005 0.20908423 0.17266206 0.13853052 -0.24985957 -0.27526146
0.123375006 0.068497084 0.32987797 -0.09548686 0.04007417 -0.021874616 0.1648367 0.15390782
-0.15391573 0.058349553 -0.043600224 0.31200296 0.037916917 0.12863629 0.012398458 -0.17377603
0.15355854 0.037913103 0.10449841 -0.21470404 0.1423737 -0.25949916 -0.2763562 -0.1584512
0.10502575 0.11378494 0.25607762 0.10182106 -0.097741716 -0.088400535 -0.106426015 -0.18074122
-0.12858675 0.2503709 -0.23550306 -0.2404968 0.28578967 0.16320275 0.12080913 0.14773472
0.15082955 0.0013381391 0.050081708 -0.16217984 -0.34595147 0.042376783 -0.11200536 0.1984626
0.05103308 0.25286156 0.23320271 0.23810008 0.2346072 -0.2194725 -0.20522185 0.10100958
-0.12921353 0.15329877 0.08130872 -0.16570461 0.27422127 0.02089661 0.086868696 0.12511586
-0.24339516 -0.20578566 0.0728723 -0.2175371 -0.10719109 -0.2743032 0.131696 -0.2092946
0.15199818 -0.29142198 -0.136853 0.030707765 -0.30686778 0.32971942 0.07726618 -0.18502553
-0.078389235 -0.18202011 0.023176024 0.0353921 -0.25994378 0.10005386 0.043807033 0.1576429
0.1744859 -0.23157288 -0.060365044 -0.10646122 -0.0961123 0.13274422 0.3422053 -0.064916566
0.05330427 -0.15745924 0.21839233 0.29855347 0.036295578 -0.045062706 -0.31018493 -0.13473983
-0.19832534 -0.07438841 -0.041454893 0.0578416 0.24365647 0.21935102 0.16852784 0.019086087
-0.10201308 -0.091412716 -0.086211026 0.036657084 -0.028571853 -0.013362669 0.0013496845 0.016835736
-0.03249614 -0.29232973 0.04271868 0.12009062 -0.021929003 0.081184596 -0.19940645 -0.101724215
0.3406523 0.14184356 0.32815072 0.06738873 0.09547331 0.19255699 0.049939588 0.12953538
-0.2895568 0.10096064 0.07289291 0.14172295 0.08607783 -0.5029202 0.06894287 -0.08367498

lstm.bias_ih_l0 f4 [256]
00000000: 7e8e 3abd 1173 0f3d 32c2 37be 09ee 1b3e
00000010: a689 263e 9245 393e 202d 123e fd36 36be
00000020: a3c4 153d 47c2 30bd be1a 5dbd d657 023d
00000030: cb8f 94bd a5db 683c af19 4fbd b726 98bd
00000040: d5f2 f33d 8fd4 6d3d 5dbf abbd 0218 c83d
00000050: e338 85bd 367b 28bb 2455 f53d 61ac e33b
00000060: a7c9 89bd d9b1 95bd 8b66 07be 943e 31bd
00000070: 6af1 833d bd5a 13be 82aa ac3d 8249 4ebe
00000080: 2e17 163e dad2 83bd 4d5c 4e3e e631 183e
00000090: 781a 9d3d ead8 4abe f5ec babd e361 a0bc
000000a0: 3148 68be c72c a23d c15e bbbd 979c cdbd
000000b0: 6e8d d93d 691c c03b e0d9 773d c249 3bbd
000000c0: e0dd 163e af9e 8bbc 55d7 993d f77f e5bd
000000d0: f591 21be 623f 923d 0b6c b2bd c4b1 a5bd
000000e0: 25c7 1cbd 29a1 313d fd9c de3d 3db4 7cbb
000000f0: 98f6 b73d d926 383e 5925 6d3d 44ac 1abd
00000100: f20c 80bd 8d51 863d e05c 0bbe 6863 6b3e
00000110: a3a0 383e b2ce e83d 9b9d 683d 5888 aabd
00000120: af53 babc 2d6b cabd 7612 263e 356e 7d3c
00000130: 70cf 833c d13a 18be a1f5 0bbe 285a c03c
00000140: f72f 693e 01f9 a03d 1a2e 98bd 1ff3 58bd
00000150: 3c1e abbc b053 34bd b540 1d3e ba7f 453e
00000160: 35ac f6bd 597e 2cbe 9227 753e c822 633d
00000170: ac1c 25bc 8c2f 613d 3f9c 733e 8fe5 c63d
00000180: 847f ed3b 618e c5bd 5a88 473e c105 353e
00000190: 2035 a93e 879f 9abd 694c 623d b414 933d
000001a0: 170a 91bd 6e94 483d d92a 513e f1bc 11bd
000001b0: a1c1 883e a7bb 1e3d be49 613e b175 4d3e
000001c0: 50ab 44bc eaf8 753e 39f9 7e3e f475 c73d
000001d0: 7a7c 7f3d 67b2 b23d e3f3 5a3e 4e62 5a3e
000001e0: 3842 4e3d 9860 d8bd 3e13 883c 414f bf3c
000001f0: f4e1 273e c70d 483e c337 2b3e 21a6 143d
00000200: 1833 7abe 8d98 d939 2c9a b7bd ae74 c13c
00000210: 2f9b 00bd b586 ea3d 6dac aebd fb3b 643c
00000220: bba9 043c ce0b d6bd f549 03bd 1271 95bd
00000230: 4327 803e a17a 823e 6be8 353e a95d 6f3c
00000240: bf02 33be fa59 2cbe fc5d 083e be17 ef3c
00000250: f4b6 06be f0a9 c93c 8a15 bf3c c505 c83d
00000260: b1ad 52bd 61e6 363e 44e0 833d fd02 2c3e
00000270: 80b5 1d3e 0086 1abc 3e7d 253e 0a70 1a3d
00000280: f451 8dbc 666d 95be 0b81 543d 351e 62bd
00000290: 0c18 40be 1938 9d3d dd9b 2a3d 80b1 a63b
000002a0: dbaa 9f3d facb b6bd 4cea 61bd abab 963d
000002b0: 5d03 34be 98d3 933d 634c 813d f82e cb3c
000002c0: e916 64bd bd3e 41bd 1549 f23d 0674 243e
000002d0: 9815 bbbc b6fe 3b3e 198e 943c c93b 073e
000002e0: 835a 84bc 7a57 f03d ed94 9dbd aff8 353d
000002f0: fc66 b23d 49aa be3c bd29 213d bae2 5a3d
00000300: 9d6b 13bc 30c3 d4bd 59b3 07be cc32 8cbd
00000310: 0e83 653d e080 2e3e bc3d 903e c151 47be
00000320: ebe5 323d 4c04 10be 0ffc 6fbd ebb6 0bbe
00000330: fb2a 33bc ccf8 88bd 69a1 12bd 072b c83d
00000340: 9511 8bbd c9f9 cebb 7e6b 16bd b2f7 34be
00000350: a3b6 6c3d 1330 7e3d 9ebc 8bbc 5009 33be
00000360: 3645 14bd db9d 27be 457a 9b3d 49d0 cb3d
00000370: f792 a4bd 01b7 4cbe 307c 503e cfea 3c3b
00000380: 3f6a 5d3c 265c 94bd 51f9 6c3e 9d3b 21be
00000390: 6ada 003d 943b 063d fc14 b0bd 932e 603d
000003a0: 270d 7bbd b942 32bd 6ac1 e3bc 19f0 463d
000003b0: 05d7 b83c 2f9f e53d 8451 433d 8b67 383d
000003c0: 4045 443e f5b3 403e b3c4 5dbd dccf 083d
000003d0: 115a ffbd 0709 673d cef6 e43d c41d 2f3e
000003e0: 1a88 8ebd 1e72 79be e683 e9bd 1d81 e73d
000003f0: bea4 dbbd 48be b2bc 1a98 9abd 31c6 193e
-0.045546047 0.035021845 -0.17945173 0.15227522 0.16263446 0.18092945 0.14275026 -0.17794414
0.03656448 -0.043154027 -0.05398058 0.031822048 -0.07253989 0.014212524 -0.050561603 -0.07429259
0.11911551 0.05806404 -0.08386109 0.09770204 -0.06504991 -0.0025708205 0.1197913 0.0069480394
-0.06727915 -0.073093124 -0.13222711 -0.04327257 0.064425305 -0.14390083 0.08430959 -0.20145229
0.1465728 -0.06436701 0.20152397 0.14862785 0.07671064 -0.19809309 -0.09127227 -0.019577926
-0.22683789 0.07918697 -0.09148932 -0.10039633 0.10622679 0.0058627618 0.060510516 -0.045724638
0.14733076 -0.01704344 0.075117745 -0.11206048 -0.15778334 0.071409956 -0.08712014 -0.08090547
-0.038275857 0.043366585 0.10869787 -0.0038559579 0.08982581 0.17983569 0.057896946 -0.03776194
-0.06252469 0.06558523 -0.13609648 0.22987139 0.18030028 0.11367549 0.05679093 -0.08326787
-0.022744982 -0.098837234 0.1621798 0.01546817 0.016090125 -0.14866187 -0.13667919 0.02348049
0.22772203 0.07859994 -0.07430668 -0.052966233 -0.02088844 -0.044025123 0.15356715 0.19287005
-0.12044565 -0.16845073 0.23940876 0.05545309 -0.010077637 0.054976985 0.23790072 0.097117536
0.007247867 -0.09646297 0.19485608 0.17677976 0.33048344 -0.07549959 0.05524865 0.07181683
-0.070820026 0.04896968 0.20426501 -0.03558058 0.26710227 0.038753178 0.22000787 0.20064427
-0.012003735 0.24020734 0.24899758 0.09739295 0.06237457 0.08725434 0.21382098 0.21326563
0.05035612 -0.10565299 0.016610738 0.02335322 0.16394788 0.19536506 0.1672049 0.036291245
-0.24433553 0.00041503125 -0.08964953 0.023615208 -0.031397995 0.114514746 -0.08528981 0.013930316
0.0080971075 -0.1045147 -0.032052953 -0.07296957 0.25029954 0.25484183 0.17764442 0.014609733
-0.17481516 -0.16831198 0.13317102 0.029186126 -0.13155729 0.024617165 0.0233257 0.097667255
-0.051435176 0.1786132 0.0643926 0.16798015 0.15401268 -0.009431362 0.16161057 0.037704505
-0.017250992 -0.29185027 0.051880877 -0.05520459 -0.18759173 0.076767154 0.04165255 0.0050870776
0.0779626 -0.08925624 -0.055155084 0.07356962 -0.17579408 0.07218093 0.06313398 0.02480267
-0.05568591 -0.047178973 0.118303455 0.16059884 -0.022837445 0.18358883 0.018134164 0.132064
-0.01615644 0.11735435 -0.07694421 0.044426616 0.08711049 0.023274558 0.039346445 0.05343888
-0.008997825 -0.103887916 -0.1325201 -0.06845626 0.056033187 0.1704135 0.281721 -0.1946478
0.043676298 -0.14064139 -0.05858999 -0.13643996 -0.01093554 -0.06688079 -0.035798464 0.09773832
-0.06790463 -0.006316398 -0.036723606 -0.17672613 0.057791363 0.062057566 -0.017057713 -0.17484021
-0.036198817 -0.16368811 0.075916804 0.099518366 -0.08035844 -0.19991685 0.20359874 0.002882648
0.013514101 -0.072441384 0.23141982 -0.15745397 0.031458296 0.032771662 -0.085977525 0.054731917
-0.06129184 -0.043520663 -0.027802188 0.04856882 0.022563467 0.112120025 0.04768516 0.04502062
0.19167042 0.18818648 -0.054142665 0.033401355 -0.12468351 0.056405094 0.11179887 0.17101198
-0.06959553 -0.24359939 -0.11402111 0.11303923 -0.107247815 -0.021819249 -0.07548542 0.1501701

lstm.bias_hh_l0 f4 [256]
00000000: 3185 bcbd bf00 203d b84b 3fbe 77c2 dd3c
00000010: e249 3d3e 7b43 043e 46d0 ca3d 8d4c 9ebe
00000020: c4bf b0bc 58a4 dbbd 1275 8e3d c01b adbd
00000030: e415 8ebd 509c d8bd 1243 463c be67 3dbe
00000040: f36b 263e bc9f 1c3e 0098 46bd fd76 963c
00000050: 9299 003e 7887 03be 9023 71bc 5910 0c3e
00000060: 0f6b ddbc 39b3 bebd d5d2 a2bc cdd2 cabd
00000070: c6e8 083e eefc 0bbd f5ac 8c3c 8b7a abbd
00000080: 66c9 143e 5389 cfbd 1fc3 d13d b6bf 443e
00000090: abfc 863d 5f39 07bd b4f7 a63d b175 dcbc
000000a0: 8251 7fbe 8591 523e 03e9 8abe cc35 973d
000000b0: 7c1e a43d 3f69 afbd 7b07 153d b947 1b3e
000000c0: f17b 7d3e ce9d 083d 2193 1e3e 60df 08bc
000000d0: 906d af3b 9eed 15bc 7d0b 803d bd48 75bd
000000e0: f989 2e3c b5e6 afbc 481a 1b3e 6d27 163e
000000f0: 9fc5 343e a22c 153e 8a97 453d 40e1 853d
00000100: cc19 4a3d afa0 bb3d d469 abbd 6898 613e
00000110: a551 60bc bf60 7c3e 6fde 1e3e 65ed babd
00000120: ec36 b63d cf3f 77bd 6460 1c3b 46ea 3ebd
00000130: 953f 80bc f5ad 15be e613 01be fae4 3a3c
00000140: 4b39 403e 10d3 473d b9a2 c03c 613c 783d
00000150: 2533 1e3d 9349 3ebd e9bf 2f3e 8674 8e3d
00000160: c001 b0bc ba78 e5bd bad9 a83d 82fe 113e
00000170: f9c0 88bd a608 c63d 365a 953d 69ed bbbc
00000180: 19bb aebd a2e9 ddbb 2405 4539 692c 423e
00000190: 746d b93e 5181 16bd 3563 55bc 1ebb 023d
000001a0: d774 61bd 00f3 683e 333b 253d 8f2a 8c3d
000001b0: 55de 753e 58b5 78bc f5d1 0d3e 195c 2b3c
000001c0: 3984 b93c 0d37 723d b5cb c43d 5f0e 983c
000001d0: d12d babb 78bc 073e 68b2 913d 5000 6a3e
000001e0: 4d45 9c3d 831d 743d 7a22 81bd 25d0 5ebd
000001f0: 2fc5 723d 3553 ef3d dddc 323e 7b85 093e
00000200: 7e3e 88bd c6f9 a33d 333b 3dbc e9c0 8b3d
00000210: 6427 bdbd ac20 d73d f290 603d e13a a3bd
00000220: b5aa dbbc 6d8c 26bd d12f 44be c8a4 7fbd
00000230: 5814 0b3e 9377 203e 0505 1f3e 1830 0fbd
00000240: 7421 07bd ed64 92bd 6f95 073e b42f d33d
00000250: 7b56 3dbe bb92 d3bd 8644 653d f4b5 bebd
00000260: 5df4 0dbe bc80 8e3d d457 13be 93a0 833d
00000270: d8da 863e 2989 3dbd fca7 35bd a519 cc3a
00000280: 6421 5ebd 1cf2 80be f326 63bc 890a 6ebe
00000290: a6a9 0a3d 1f47 583e 0ec9 f83d 0330 d23d
000002a0: bb57 843e 5b0c 663d 37d0 f83d f685 15bd
000002b0: 2c48 61be 4bc0 37bd a0d5 e3bd 81bb 293d
000002c0: f25b 78bd 24aa 05bd e944 c53c 58f8 6b3e
000002d0: a405 ec3d 2e18 b33d ea95 42bc b016 2d3c
000002e0: 4d56 8abd 050a c5bc 04e3 c63d 0e60 703d
000002f0: b6c4 5d3e ccbc 93bd 345e b13d ae89 843c
00000300: 3203 8abd 8b40 e43c dcfc 32bc ec9b b93a
00000310: a826 3e3e a9eb df3d 509b c73e e6c7 69bc
00000320: 02fe 1a3e 9d9a 6dbe da07 e23d d381 f63c
00000330: cfa1 1c3e 7756 fabd 4e41 26bd 3cd6 c7bd
00000340: e0cb 60bd c7da 923d 8ccc 5bbe e82f 0ebd
00000350: 94ce c7bd 779f c13d d63c 13be e455 5fbe
00000360: fb26 9cbd a59b 0bbe 7d60 1d3d f042 a23d
00000370: cfa5 0cbe a03a d4bd 1b59 1f3d 410e 73bd
00000380: b793 e03d 0d5c 4cbe d6e4 463e db48 c2bd
00000390: 9d97 da3d 92ad adbd 66a8 c3bd c201 12bd
000003a0: c540 40be 9cd4 803d f7d2 f2bd a299 c8bd
000003b0: 7992 143e 4226 babc e10b c03d 8be1 c8bd
000003c0: 62e9 5e3e 33d9 3e3e f1d6 eb3d 3d74 413e
000003d0: 153b 75be e5cd c2bd 5d62 38bd ff44 153e
000003e0: f3a5 20be d9f4 93be 4613 adbd 66be 37bd
000003f0: 2246 853d 6527 873c 3c75 d03d 5120 bf3d
-0.09205092 0.03906321 -0.18681228 0.027070267 0.18485215 0.12916367 0.09903006 -0.3091778
-0.021575816 -0.107247055 0.06955923 -0.084525585 -0.06937769 -0.10576689 0.012100952 -0.18496606
0.16252117 0.15295309 -0.048484802 0.018367285 0.12558582 -0.12844646 -0.014717951 0.13678111
-0.027028589 -0.09311528 -0.019875923 -0.09903488 0.13370046 -0.03417676 0.017172316 -0.083729826
0.14529952 -0.101336144 0.102422945 0.19213757 0.06591161 -0.033013698 0.08152714 -0.026911588
-0.24933437 0.20563324 -0.271309 0.07383308 0.08013627 -0.08564996 0.036384087 0.15164079
0.24754311 0.03335362 0.15485813 -0.008354038 0.005353637 -0.009150891 0.06252191 -0.05988382
0.010653012 -0.021472314 0.15146744 0.14663477 0.17653511 0.14567807 0.048240222 0.06537104
0.049341008 0.09161507 -0.083697945 0.22030795 -0.013691341 0.2464628 0.15514539 -0.09127311
0.08897194 -0.060363587 0.0023861164 -0.04661014 -0.015655318 -0.1461714 -0.12605247 0.011407131
0.18771856 0.04878527 0.023515092 0.060604457 0.038622994 -0.046456885 0.17163052 0.06955819
-0.02148521 -0.112046674 0.08244653 0.14257243 -0.066774316 0.09669618 0.07292597 -0.022940354
-0.0853178 -0.006772236 0.00018789299 0.18962254 0.3621632 -0.03674442 -0.013024141 0.03191673
-0.055043068 0.22748947 0.04033966 0.06844055 0.24010594 -0.0151799545 0.13849624 0.0104589695
0.022646056 0.05913453 0.096091665 0.01856154 -0.0056817313 0.13255489 0.071141064 0.22851682
0.076304056 0.059598457 -0.06305404 -0.05439772 0.05927008 0.11685792 0.17467065 0.13429825
-0.066525444 0.08006625 -0.011549759 0.06823904 -0.09236029 0.105042785 0.05482573 -0.07970215
-0.026814798 -0.040661264 -0.19158866 -0.062413007 0.1358198 0.15670614 0.15529259 -0.034957975
-0.032990888 -0.07148156 0.13240598 0.10311833 -0.18490021 -0.10330721 0.055973552 -0.093120486
-0.13862748 0.06958148 -0.14388973 0.064271115 0.2633884 -0.046273384 -0.044349656 0.0015571608
-0.054231063 -0.25184715 -0.013864267 -0.23246206 0.033853196 0.2112088 0.12147723 0.10263064
0.25848183 0.056164127 0.12149089 -0.03650471 -0.22000188 -0.04486112 -0.1112473 0.041438583
-0.06063456 -0.032632962 0.02408071 0.23043954 0.11524513 0.08744846 -0.011876563 0.010564491
-0.06754742 -0.02405263 0.097112685 0.058685355 0.2165707 -0.072137445 0.08660546 0.016178932
-0.06738891 0.027862808 -0.010924544 0.0014160848 0.18569434 0.109336205 0.38985682 -0.014268851
0.15135959 -0.23203512 0.11036654 0.030091202 0.152961 -0.12223523 -0.040589623 -0.09757659
-0.05488193 0.07170635 -0.21464747 -0.034713656 -0.097561985 0.09454244 -0.14378676 -0.21810108
-0.076246224 -0.13633592 0.038422097 0.079229236 -0.13735126 -0.10362744 0.038903337 -0.059339765
0.10965674 -0.1995699 0.19423231 -0.09486552 0.10673449 -0.084803715 -0.09553604 -0.035646208
-0.18774708 0.06290552 -0.118566446 -0.09794928 0.14509 -0.02272332 0.09377266 -0.09808644
0.21768716 0.18637542 0.11515606 0.18891998 -0.2394832 -0.095119275 -0.04501568 0.14577101
-0.15688305 -0.2889774 -0.08450942 -0.044859312 0.065075174 0.016498277 0.10178611 0.09332336

lstm.weight_ih_l1 f4 [256, 64]
00000000: e4cc 893b 1638 7abe 0bd7 7fbe b3bd c4bd
00000010: 938c d0bd 02a1 313e b9ec 7abe 56e9 b53d
00000020: 2272 50bd 8f97 b1bd 7c3b e5bd cbdf 00be
00000030: a6a9 453d e7af 473e d4f6 0cbd 31ba 173c
00000040: f82b 763b 605a ccbd 0bf1 5a3e cde1 e53d
00000050: 052e 4dbb 08f4 1d3d cb59 96bc 693b e53c
00000060: e56c 15be 12f5 043e 4b86 2a3e f2f4 2ebd
00000070: 2fa8 353e c641 d43c f1f8 ff3c cfa9 4a3e
00000080: b5a6 44be 2997 cabe 9c43 cf3d 231d 8abd
00000090: b353 1fbd 243a bf3d db41 093e 807e 29be
000000a0: 381e a4bd 62a3 733e 24d1 0abc 55fa 12bc
000000b0: 3153 a3be 7909 d0bc 5b56 0dbd 4619 573d
000000c0: e942 db3c 921c c5be 48f5 aebd f7a7 1d3e
000000d0: be9b d63c 79f6 a23d 2430 bd3d 7e67 803e
000000e0: 51ec 8b3c fd05 563d 5bf1 343d afb9 cf3c
000000f0: 1cbc 193d f179 1fbe bb34 cebd 036f e23d
00000100: 9997 c53e 5d9e 2e3e fc87 9b3e 56d0 3ebd
00000110: 9bbb 9c3e 4bd1 7ebe 7fdc b13d 30c4 01be
00000120: ddfc 2f3e 2d45 f13c b725 783e e2b9 a13e
00000130: 73a5 39bd 7458 b8bc b97f db3c c344 683e
00000140: 4beb d4bd b064 133f 493c a6be 0710 f8bd
00000150: 557d 403d 5211 103e e182 113e 1dc2 4a3d
00000160: df0d 74be 4f5a 573e a459 74be b6fb 16be
00000170: df22 9bbd 9ecf 3bbe bb8f 95be 1b34 923e
00000180: c19e 773d bafc 01be 674d 4c3d c4ce 623e
00000190: 2a9c 0dbe f3fe f2be 9ebd a23d e07e ac3e
000001a0: c7fb ac3c bc5f 98bd f786 2e3f 7eb0 033c
000001b0: 8d55 a1bb d0c6 65bd 3c35 26be 3dd2 e6bd
000001c0: d4fd 61bd a48f d3bd 3d2c 4cbe a2c7 b9be
000001d0: c8e0 51be 664b 02bf 6a3f c1bd 49a8 33bd
000001e0: fcb8 cb3b 7c11 e2bc 4073 25bf 2584 a4be
000001f0: 5d0e 903d a354 53be cecc dbbe 3a8b 693e
00000200: c71a c53c 7146 17be 786c a7bd eab6 9bbd
00000210: 7c06 943d a409 25bd ce24 183e 31bf e3bd
00000220: a041 993e 1879 0cbe 308e c53d 9c4d 313e
00000230: 795a 97be 674b 62be 7aaf 94bd 1f60 a23e
00000240: a413 153e 7722 e43d 4a51 9cbd 42f6 cebd
00000250: e116 573e 0ed8 553d 7a94 30bc a803 71bd
00000260: 5863 19be aaca f13d 426c 41bd c8cc c03e
00000270: f026 34be 9524 033e 2009 903d 287d a23c
00000280: 6ab8 91bc 5e89 353e d52d 073d 0bcb 763e
00000290: b738 ab3b 4eb3 d1bd 41b3 3fbd 1c6e 8ebc
000002a0: 5fc8 0f3e 3756 0b3d e298 0e3c a0f0 78be
000002b0: fb26 733e e2d2 52be 95ba 4c3e 1033 90bd
000002c0: e4e0 24bd a302 3e3e 5d72 41be 61cb 7fbe
000002d0: 757a 093e 0856 febd e30a 0ebe 38cf 5fbe
000002e0: 7bdb 0abe 5708 cbbd 904b be3d 873f dc3d
000002f0: a9e2 30be 5816 eb3c 27b2 f33b 0c51 0cbe
00000300: 9bb3 823d 7933 02be 58e5 2cbe 9ec5 20bd
00000310: 3ad7 f73c a6d2 023e ac48 a3be 3ecd 8e3d
00000320: 403f 83be c234 88bd cab4 93bd 9246 9ebe
00000330: 6621 0b3e 6d85 0a3d 2415 4c3e a7e8 a63d
00000340: 040c c9be 9585 02be d295 5d3d e2a7 81bb
00000350: c7bc c7bd dc01 26be c46f b53d fbe5 c83d
00000360: a757 d8bc 13ac 19bd 057d a5bd 6240 d4be
00000370: 1d33 0d3d 09b4 9b3c 8535 87be 19ac 333e
00000380: 028f 20bd 1f87 21bd 30cc 803e 23cf 49be
00000390: aa75 3e3d 5198 fc3c 9cd2 213e 771f 48bd
000003a0: 9733 87be fc7c a53c 3e2c ab3d bd25 a33e
000003b0: d690 e63b 4f5e 93be fbd7 98be 4604 c33d
000003c0: 01e5 993c 9069 34be c2f1 8f3d 5bfa 403e
000003d0: 0879 e4bd cdb9 2b3d 0826 f13c 4f0b 3d3e
000003e0: 96e8 bf3d 8592 2a3e 8f50 c1be a75f de3d
000003f0: 9248 083e f2b9 fe3d d61f 953d 91e8 bc3e
0.004205333 -0.24435458 -0.24984376 -0.09606495 -0.101830624 0.17346576 -0.24504365 0.08882396
-0.050890096 -0.08671486 -0.11192986 -0.1258537 0.048257492 0.19500695 -0.03441508 0.0092607
0.0037562829 -0.09978175 0.21381013 0.11224709 -0.0031307947 0.038562804 -0.018353363 0.02798243
-0.14592321 0.12984112 0.16652791 -0.042714067 0.17739938 0.02591027 0.031246634 0.1979134
-0.19204219 -0.3956845 0.10120317 -0.06743839 -0.03889818 0.09337261 0.13404028 -0.16552162
-0.08013576 0.23792794 -0.008472715 -0.008970817 -0.31899408 -0.025395142 -0.034506183 0.052514337
0.026765304 -0.3849836 -0.085428774 0.15396105 0.02619731 0.07957167 0.09237698 0.25078958
0.017080458 0.052251805 0.044175487 0.025357096 0.03753291 -0.1557386 -0.10068651 0.1105633
0.38592222 0.17052598 0.30377185 -0.046585403 0.30611882 -0.24884526 0.086846344 -0.12672496
0.17186303 0.02945193 0.24233137 0.3158713 -0.0453238 -0.022503115 0.026794301 0.2268248
-0.10396441 0.5757551 -0.3246787 -0.12112432 0.046994526 0.14069107 0.14210083 0.049501527
-0.23833416 0.21030544 -0.2386232 -0.14744458 -0.075750105 -0.18340918 -0.2921122 0.28555378
0.060454134 -0.12694064 0.049878504 0.22149187 -0.13829103 -0.47460136 0.07946323 0.33690548
0.02111615 -0.07440135 0.6817469 0.0080376845 -0.0049235285 -0.056097806 -0.16231245 -0.112705685
-0.05517371 -0.10330132 -0.1993875 -0.3628512 -0.20495903 -0.508963 -0.094359234 -0.04386166
0.00621712 -0.027596228 -0.6462898 -0.32132068 0.070339896 -0.20637755 -0.4292969 0.22807017
0.02406062 -0.14772965 -0.08174986 -0.076032475 0.07227799 -0.040292397 0.1485779 -0.11120451
0.2993288 -0.13718069 0.09646261 0.17314762 -0.29561213 -0.22099076 -0.07260032 0.3171396
0.14558274 0.11139386 -0.07632692 -0.10105564 0.21004821 0.052208 -0.010777587 -0.058841377
-0.14979303 0.11806233 -0.047222383 0.37656236 -0.17592978 0.12806924 0.070329905 0.01983507
-0.01778813 0.17728183 0.033002693 0.24100892 0.005225267 -0.10239278 -0.04680181 -0.017386489
0.1404128 0.034017768 0.008703442 -0.24310541 0.23745339 -0.20588258 0.1999305 -0.070409894
-0.040253535 0.18555693 -0.18891282 -0.24979927 0.1342562 -0.12418753 -0.1387134 -0.21856391
-0.13560288 -0.099137 0.09291756 0.107543044 -0.17273964 0.028697178 0.007437009 -0.13702792
0.06381913 -0.12714948 -0.16884363 -0.039250962 0.030253995 0.12775669 -0.31891382 0.069727406
-0.25634193 -0.06650688 -0.07212217 -0.30913216 0.13586959 0.03381865 0.1992994 0.08149844
-0.3926698 -0.1274627 0.054097958 -0.003956781 -0.09752803 -0.16211647 0.08859208 0.0980949
-0.026408983 -0.03751762 -0.08080486 -0.4145537 0.034472574 0.019006746 -0.2640802 0.17546119
-0.039198883 -0.039435502 0.25155783 -0.19707923 0.046498932 0.030834349 0.15802997 -0.048858132
-0.26406547 0.020201199 0.08358048 0.3186473 0.0070363088 -0.2878289 -0.2985228 0.095222995
0.018785955 -0.17618394 0.070285335 0.18845503 -0.111558974 0.04192524 0.02943708 0.18461345
0.09370534 0.16657455 -0.37756774 0.10858088 0.13308933 0.1243781 0.07281463 0.36896184

lstm.weight_hh_l1 f4 [256, 64]
00000000: 7dea 6e3e b52e 99be e106 8cbd 5759 853d
00000010: e814 89bc 9f33 34be c56a 75be fa39 473e
00000020: 7dbd 2abd 3c8f 63bd 5842 f5bd f25f f4bd
00000030: 009c 81bd 2ef7 84bd 0954 6abb 1661 343e
00000040: b2f3 2a3e c653 1cbe 284c 6bbc 1bfb e43d
00000050: b959 133d 1453 a0bd 1e50 43be 32e2 4ebe
00000060: 47e0 813c 7e07 0fbe 9781 5ebe 1df6 5dbe
00000070: 2342 afbd 2a86 20be 2546 bebd 8d45 5e3e
00000080: 529a 1ebe 523b 30be 0fa9 54bd f3d3 0d3b
00000090: 92d8 75bd d1f4 50bc b06e 2b3d eb98 07bd
000000a0: 99da 33bd 2f49 babc c9cd 91be fade 8cbe
000000b0: c131 c5bc cb64 ef3c 02df bd3d f693 0bbc
000000c0: 6d9b 9d3d 5dec 17be e490 07be 88a1 b53e
000000d0: dd48 323e 3436 8bbd b756 c7bd 21f1 553a
000000e0: 2a63 293e 7168 723e 9235 753e f959 193e
000000f0: 921e 24be 44a1 95bd ad75 8ebe 4b13 ad3d
00000100: 7e73 dcbe 6c8d a03e f7d6 6d3e 257b d33d
00000110: b39a 86be e132 3c3d b38b 9e3e 7ee1 ddbe
00000120: bd54 183e 81cd a83e 4cc0 b6be 38f7 19be
00000130: b9f7 e9bd e32b 4d3e 3904 91be 56da 2dbc
00000140: 337a b1be 92e9 d63c 3db8 aabe 0251 7cbe
00000150: e52a 58bd 187c d13d 452f 2dbd 7390 09be
00000160: ad86 77be 6412 17bb 5174 b43e 1075 0fbe
00000170: d158 1f3e e805 413d 9cae 93bd 1ee9 49be
00000180: adbd 493e 5449 0f3d 91d5 053f 0820 3cbe
00000190: f65a 003e 410f ae3d 51ce c03e 64e2 4bbe
000001a0: ecd1 793e 0e09 e03d a66a b83e 1497 53bd
000001b0: 8b30 cabe b23a dd3e b297 5ebe 6b53 7f3e
000001c0: 4574 be3e 4089 99bb 0064 db3d 0759 6e3e
000001d0: a10f 863c 5eaa 373d 4c15 c73d 430c 13be
000001e0: cc0c 1bbf 1d63 a9be 7748 67be f929 7cbe
000001f0: ea51 603e e6e9 6cbc 9bae 813e fb24 c6bc
00000200: 9f78 9cbd 8b11 27be f732 3cbe e69a 753b
00000210: d3eb 213d 26fc acbc 4759 0dbe 5c90 66be
00000220: 4128 fa3d d74e a93d eeb9 b13d d190 b53d
00000230: 55bb db3d 82a4 803e 0c5e a6bd 6059 32bc
00000240: d93b 2cbe 9706 b13e 54e1 553d 8c00 113e
00000250: eb36 523d 7ee7 2ebd df94 40be 9304 303e
00000260: 1090 66be 8b94 853e a6f6 86be cce4 ec3c
00000270: 706c 51be 64c6 523e 8f99 ec3d 3dcd c6bc
00000280: d6ee 0e3d f06f 813d 6f5b 563d 41df 0fbe
00000290: fa7d b93d b03e 203e 2f72 2dbe da1f 96be
000002a0: 92ee 233e ca58 9a3e 3d7b a33d 2c99 1b3e
000002b0: 623e 83be f4fb 7c3e 436e 7cbe 1a9f 16be
000002c0: 39cc c43c 7c7d 7dbe 1fd7 e7bd 6e0e 36bd
000002d0: b10a 2c3e ba60 13bd 083c 2a3d 7162 f0bc
000002e0: a60c 65be 6a08 efbd 4e7b 80bd 455c 053e
000002f0: 51c5 babd 89c8 3ebd c62c 443e f725 e83c
00000300: 49bd 95bd 98a0 dabb 989a 2d3d 8f3a 09be
00000310: 49ca 8a3d 07c0 a1bd 44c1 3f3a 4e6b 653d
00000320: 9319 d03c 8250 d33d 6c49 5ebe 2243 65bd
00000330: 1190 29bd 63e2 5ebc 4a55 383d 14ff c1bc
00000340: 06ee 023f 948a febd 3617 f9bd 55cc 0bbe
00000350: 78a8 30bd 15f9 d2bd 2355 b7bb fe85 703e
00000360: 664c f23c 4ef8 59be 2489 9ebd a05d 3fbd
00000370: eaf7 8abe 4367 b1bc 4c95 793d 8586 18bd
00000380: 130c 5b3c e0c3 c7bc 48e5 2b3e 3f41 a93d
00000390: edeb e8bc fd8b 313e 154d 32bd c361 5dbd
000003a0: f048 713c 6a8f 033e 8177 813c b778 83be
000003b0: ccf8 38be d2df b93d e562 dfbb 42c3 d43d
000003c0: e393 12be d436 9fbc 5b64 cfbb 27f5 ac3d
000003d0: 32e9 683e a279 d33a cd54 57bb 719b 273c
000003e0: 7989 17be 65f2 023d bd1c dcbd b95e 3c3d
000003f0: 89c6 a6bd 2f79 563e 3597 55be 7fb5 4f3e
0.23331638 -0.29918447 -0.068372495 0.06511181 -0.016733602 -0.17597817 -0.2396651 0.1945571
-0.041684616 -0.05555652 -0.11975545 -0.119323626 -0.06328583 -0.06492458 -0.0035755655 0.1761516
0.16694525 -0.15266332 -0.014361419 0.11180707 0.035974238 -0.07828346 -0.19073531 -0.20203474
0.015854014 -0.13967702 -0.21729122 -0.21675916 -0.085575365 -0.1567618 -0.09290723 0.21706219
-0.15488556 -0.17210129 -0.05191904 0.0021641224 -0.06002099 -0.012753681 0.041853607 -0.03310482
-0.043909643 -0.022739975 -0.28477314 -0.27513868 -0.024071576 0.029222867 0.09271051 -0.008519163
0.07695661 -0.14836259 -0.13238865 0.354748 0.17410608 -0.06797448 -0.097333364 0.0008161236
0.16541734 0.23672654 0.23946217 0.14975728 -0.16027287 -0.073061496 -0.27824154 0.084509455
-0.43056864 0.31357896 0.23226534 0.10326222 -0.262899 0.04594696 0.30965957 -0.433361
0.14876075 0.32969287 -0.35693586 -0.15035713 -0.114242025 0.20036273 -0.28323534 -0.010611137
-0.34663543 0.026234422 -0.33343688 -0.24640277 -0.052775282 0.10228747 -0.042281408 -0.13434009
-0.24172468 -0.0023051733 0.35244992 -0.140095 0.15561225 0.047124773 -0.072110385 -0.19717833
0.19701262 0.03498204 0.52279 -0.18371594 0.12534699 0.08499003 0.37657407 -0.1991058
0.24396485 0.10939227 0.36018866 -0.05165775 -0.3949016 0.43208843 -0.21737555 0.24934165
0.37198082 -0.004685551 0.10712433 0.23276149 0.016364874 0.04484021 0.09720859 -0.14360146
-0.605664 -0.3308343 -0.22586237 -0.24625386 0.21906248 -0.014460063 0.25328526 -0.024187556
-0.07640194 -0.16315286 -0.18378817 0.003747636 0.03953154 -0.021116327 -0.13803588 -0.22516006
0.12214709 0.08266991 0.086780414 0.08865512 0.1072909 0.2512551 -0.08123407 -0.0108855665
-0.16819705 0.3457534 0.052216843 0.14160365 0.051321905 -0.042701237 -0.1880679 0.17189245
-0.22515893 0.26089892 -0.26360053 0.028917693 -0.20451522 0.20583493 0.115527265 -0.024267787
0.03489574 0.063201785 0.05233329 -0.14050008 0.09057231 0.15648913 -0.16938089 -0.29321176
0.16008976 0.30145866 0.0798249 0.15195149 -0.25633532 0.24705487 -0.24651437 -0.1470913
0.024023162 -0.247549 -0.11320328 -0.044447355 0.16800953 -0.035980918 0.041561157 -0.029343816
-0.22368106 -0.11671527 -0.062735185 0.1302348 -0.09119666 -0.046577964 0.19157705 0.028338416
-0.07311494 -0.0066719763 0.04238376 -0.13401245 0.06776864 -0.078979544 0.00073148706 0.056010537
0.02540282 0.1031809 -0.21707696 -0.055972226 -0.041397158 -0.0136037795 0.045003213 -0.023681201
0.51144445 -0.124287754 -0.1216263 -0.13652165 -0.043129414 -0.10301415 -0.005594866 0.23488614
0.029577445 -0.21286127 -0.07741001 -0.046720147 -0.27142268 -0.021655684 0.060933396 -0.037237663
0.013369578 -0.024385393 0.16786683 0.08264398 -0.02843281 0.17338558 -0.043530542 -0.05404831
0.014726862 0.12847677 0.015804054 -0.25678036 -0.18063658 0.090758935 -0.006817209 0.10388805
-0.14314227 -0.019435324 -0.006329102 0.084451966 0.22745207 0.0016134272 -0.0032856942 0.010229931
-0.14798535 0.031969447 -0.10747669 0.045988772 -0.08143336 0.20944665 -0.20858462 0.20284079

lstm.bias_ih_l1 f4 [256]
00000000: 78c3 a83e 1d9e c1bd 1537 d0bd 131f 30be
00000010: f739 533e e096 9cbd a2e4 0f3d 3b8d 9a3e
00000020: a908 9fbd 828f 0e3d eac7 e83d 9ac7 0fbe
00000030: 8752 2d3b 0279 5a3d e68a 12be 2d01 3dbe
00000040: 51f3 15bd ac52 183d 70ad 5dbd 9e57 9cbe
00000050: e3c5 96bd 7dd3 1ebe 7936 3c3e 9e03 4a3e
00000060: 34ab 40be 1ae0 a8bd 0aef 1a3e 2d07 003e
00000070: 4870 0cbe 1153 173c 3d03 823e dcaa c63d
00000080: 80be 563e 74f3 2e3e f87f 233e 77d8 ed3d
00000090: 6df3 79be cfb3 49bd 1cea 0ebd a5ee cbbd
000000a0: 768a 9d3d 5dc1 8dbd 4c31 0cbe 43a8 2d3e
000000b0: 44c4 163e e76b 9e3c 6fbc b8bd 2271 9d3d
000000c0: 933e abbd b9f3 42be 9de5 b23d 9d07 aabe
000000d0: b01c d63d 7fce 24bd 69a7 04bc 0216 9abd
000000e0: 5104 9e3d e27e 313b 6966 cb3d e470 f93d
000000f0: 6784 80be 399f a43c f2b7 17bd 599f fcbd
00000100: 64d4 863e 5efd 1c3f fc9c 073e 3b9c 883d
00000110: 839e 91bb d926 613d fe31 b13e 7d56 a33e
00000120: 5bfc 7d3b bd30 b23e 8445 a23d 83e2 943d
00000130: 0653 7a3e 9567 603e ba47 02bd eb34 413e
00000140: b6b9 253e ac61 663e d19e 773d 6bc6 72bd
00000150: ebe6 f23d 6219 fc3e 5a20 8f3e 8b59 693e
00000160: 4c6e 083e 6cd8 8f3e e68b 3c3e 7765 353e
00000170: d7fe f93d 15e0 eb3c ff2c 8e3e 2982 203e
00000180: 2d52 e03e 95d5 9c3e 0a3c f73d fb3d 8b3d
00000190: 1f3b 053e c9fb 973e ee42 763d d928 1c3e
000001a0: 6486 073e 0883 c33d 792e a73e 5811 843d
000001b0: 00e1 6b3e e0db 973e fff7 cc3d dc6a ee3d
000001c0: d4d6 b63d 88c6 e23d 2161 ac3e c8ba 973d
000001d0: 44f1 e83d e441 7e3e 6d5f dc3d 0b86 fc3d
000001e0: 6133 0f3e ebac 413e 6b05 b13d 84c1 043e
000001f0: f00a 6cbd 01ea a73e 780e 9d3d 98ec 5e3e
00000200: dd2e 4a3d 6a95 abbc dae7 9d3d c1d9 173e
00000210: 6a9a 69bd 4be5 c93c 85f9 1d3c 5e30 633e
00000220: 92e4 4bbd 1302 203e a090 ed3d 896b febd
00000230: 7e29 12be 9814 11be 9e08 57bd d6ee 7a3b
00000240: ca0e 073e ca3d 9dbe f06f 96bd b1f0 b23c
00000250: 3b31 14bd cd3d d13d 6c60 2b3e caeb 12be
00000260: 80fd f83d d108 37bd 655c 7abd b6dc 26be
00000270: 2451 b03c dfd4 05bd 2bac 9abd adb9 453e
00000280: 8a67 21bb 0ffa 25bc d49f 9a3b b741 d7bc
00000290: f279 cc3c 63e4 983d cfac 493d bc43 573e
000002a0: 7a53 613e f535 08be 6f83 f83a 121b 0bbe
000002b0: 687c ae3c 88c5 58be 61fd 433e 9822 a9bd
000002c0: 7b1a 18bc 8f76 50bd 9bbc 383e 3c63 6bbe
000002d0: 954b 4fbd 308d db3c 25a1 29be 9982 e9bd
000002e0: f19b 9a3e e16f 2cbd bf06 193e f561 30be
000002f0: 4362 b4bb 696b cf3d 22c9 853d 240c 14bd
00000300: 4909 883e 4d61 553e 2939 543d 2d13 17be
00000310: da34 e1bd 0d31 0bbd db91 04bd 8e6a 323e
00000320: 9058 4fbe 05bd e63a 0557 9d3d b888 743d
00000330: 1058 343c db80 c73e 329b 4c3e 375f d03c
00000340: 87ea 4d3e df44 b63e 38e6 da3c d3bb 6ebe
00000350: 2811 24be d992 343e b368 6c3e 6933 333e
00000360: 978f 12bc 3b4b 743e 6276 263e e807 253d
00000370: 60d6 92bd 316c 00be b590 24be e6dd b3bc
00000380: 9989 193e d419 503d 4918 a13e e0de 84bd
00000390: ffe8 843d abdd 3bbe 60a2 5abe 23b7 4d3e
000003a0: fb9e 87be deb6 973d 60ca 9a3e 04d8 bfbd
000003b0: 9f62 bb3e 7775 263d c0e6 113e 12ab 073e
000003c0: 069c 14be d092 793c af83 ccbd be76 52bd
000003d0: a163 a73d a98c 8f3d 6802 713c 4b13 583a
000003e0: ac5a 5b3e ce0c 133d 2849 b6be 34e1 43be
000003f0: da41 81bd aa5d 3e3e 22ae 383e 0a87 8abc
0.3296163 -0.09453986 -0.10166756 -0.17199354 0.2062758 -0.076459646 0.03513015 0.30185875
-0.07765324 0.03480483 0.113662556 -0.14040986 0.0026446895 0.05333806 -0.14310798 -0.1845748
-0.036608998 0.037188217 -0.05412048 -0.30535597 -0.07361963 -0.15510364 0.18380155 0.19727942
-0.18815309 -0.08245869 0.15130249 0.12502737 -0.13714707 0.009236113 0.25393096 0.097005576
0.20971107 0.17085057 0.15966785 0.11613553 -0.24409266 -0.049243744 -0.034891233 -0.09957627
0.07692425 -0.06921647 -0.1369068 0.16958718 0.14723307 0.019338561 -0.09020316 0.07687594
-0.083615445 -0.19038285 0.087352015 -0.33208933 0.104546905 -0.040235993 -0.008096554 -0.07523729
0.07715667 0.0027083685 0.099316426 0.12179735 -0.25101015 0.020095455 -0.03704066 -0.12335081
0.26333916 0.6132411 0.13243479 0.066704236 -0.004443945 0.05496869 0.34608454 0.31901923
0.0038755152 0.3480281 0.07923415 0.07269766 0.24445733 0.21914513 -0.031806685 0.18867843
0.16184124 0.22498196 0.060454194 -0.059271257 0.1186045 0.49238116 0.2795437 0.22788064
0.13323325 0.28094804 0.18412742 0.17714487 0.1220681 0.028793374 0.27768704 0.15674652
0.43812695 0.306317 0.120719984 0.06798931 0.13010834 0.29684284 0.060122423 0.15249957
0.1323486 0.095464766 0.32652643 0.064486206 0.2303505 0.2965994 0.10008239 0.116414756
0.08927694 0.11073023 0.33667853 0.074086726 0.11374143 0.24829823 0.107603885 0.12330254
0.13984443 0.18913619 0.086436115 0.12964445 -0.05762762 0.32795718 0.07668775 0.21769941
0.0493611 -0.02094527 0.07710238 0.1482916 -0.057032026 0.024645468 0.00964201 0.2218642
-0.04977853 0.15625791 0.11599851 -0.124228545 -0.1427364 -0.14168012 -0.052498452 0.003828933
0.13189235 -0.30711204 -0.07345569 0.021843286 -0.036179762 0.10216866 0.16736001 -0.14347759
0.12157726 -0.044686142 -0.06112327 -0.16295132 0.021523066 -0.032673713 -0.0755237 0.19309111
-0.0024628364 -0.010130419 0.00471876 -0.026276452 0.024960492 0.07465436 0.04923707 0.21021932
0.220045 -0.13301833 0.0018960069 -0.13584545 0.021299556 -0.21169102 0.19139625 -0.08258551
-0.009283657 -0.050894316 0.18040697 -0.22987074 -0.05060919 0.026800722 -0.16565378 -0.11401863
0.301971 -0.042098884 0.1494398 -0.17224868 -0.005504878 0.10127909 0.06532504 -0.03614439
0.26569584 0.20837899 0.051812325 -0.14753409 -0.10996409 -0.033982325 -0.03236566 0.1742346
-0.20248628 0.001760394 0.07682613 0.059700698 0.011007324 0.38965496 0.19981077 0.025436027
0.20108996 0.3559942 0.026721105 -0.23313837 -0.1602217 0.17634143 0.23086815 0.1750008
-0.008945367 0.23856823 0.16256097 0.040290743 -0.07169795 -0.12541272 -0.16070826 -0.021956395
0.14993896 0.05080588 0.3146384 -0.064878225 0.06489753 -0.18346278 -0.21351004 0.20089392
-0.2648848 0.07407926 0.30232525 -0.093673736 0.3659868 0.040639367 0.1424818 0.13248852
-0.14512643 0.015232757 -0.09986054 -0.051382773 0.081732996 0.07009251 0.014710046 0.0008242621
0.21421307 0.035900883 -0.3560269 -0.19128877 -0.06311388 0.18590418 0.18035176 -0.016910095

lstm.bias_hh_l1 f4 [256]
00000000: 257c 2b3e 3b53 54be 41a6 35be 5394 e7bd
00000010: 8404 5f3d e8b8 163d 0aa0 32be 03a8 363e
00000020: 9e8c 90be 3894 de3d 99d3 b7bd d7d5 20be
00000030: 0668 123e 92a7 febc f047 e0bb 7de2 6fbe
00000040: 7914 a8bc b73e 1f3c bbea 0cbe fd51 8cbe
00000050: f35f 8d3d 9432 86be 4aa8 c23e aa73 063e
00000060: 192b 01be 0934 aebd db96 0abd c7a2 603e
00000070: 50ca 0ebe f8ad 303e 1a5d 6d3e ff9b 2abd
00000080: 2480 073e ef3d 053e b8c2 703e 855c 813b
00000090: 90c9 a0be a0f0 03be 69e0 11bc 3239 f83d
000000a0: 2ebc 763c c045 27bc 6ec3 8dbc 9519 aa3e
000000b0: 96d7 b43d 1c99 cebc 1b31 9abd 8811 393e
000000c0: 18da 9bbd 8942 22be 369a 9b3c ab36 a7be
000000d0: b365 09bd 9513 3abd 0840 63bd df29 4abd
000000e0: 4fd9 6a3c 8174 3abd 7bf5 dabc 97da ae3d
000000f0: 19a2 2dbe 28d8 7e3e a1bd 1d3d 3039 283d
00000100: 5b15 d03e ec22 243f 6458 363e 63a3 7e3d
00000110: 46b8 123e 608a cb3c 22ca 793e a245 af3e
00000120: a6c1 05be d6ab a63e 88c0 963d 9bff 803d
00000130: b398 8e3e 41a9 1b3e 7230 7dbc 7079 e03c
00000140: 9652 4d3e 6800 bf3d 19f6 9b3d d260 873d
00000150: 2349 a83c a14e f93e 8701 493e 1b8a a33d
00000160: 30a7 8c3c 0406 fe3d 5f94 8d3e 38af 823e
00000170: 4d67 713d 8ea1 a73c 65eb 803e 3070 763e
00000180: 2bcd 903e 6fed 7b3e 8d36 603e 5675 673e
00000190: 7202 b73c f1be bf3e 63c1 193e 3469 b43d
000001a0: c58a 273e 4eca 1d3e 39dd be3e aa83 213e
000001b0: eb12 1b3e 577d a03e ec18 9f3d 8e65 aabc
000001c0: 2bec 673e 4d5e 9d3d 436f 993e 6fc5 0e3d
000001d0: 4d40 2f3d 3b53 153e e8bf 573e 3d5a 6a3b
000001e0: 8caa 40bd 15de 633e d139 67bd 5f39 d93d
000001f0: e2f2 eabd 8f99 833e b6f2 663e 7b37 8e3d
00000200: e7f8 62bc 63c8 d4bd a026 d6bc e587 d43d
00000210: 0707 c13d 3b7f 0f3e b41c 4d3d 27df e93d
00000220: fb30 7c3d 07ac bd3d 9da4 b2bc 85de cabd
00000230: 8275 2fbe 3c8b 67be 1e52 e43c 7909 d8bd
00000240: d90b 833e 41c2 d3bd c83d 3e3d 90d0 8a3d
00000250: 202f 283e 9a9d f9bd 4b22 443e 61cc 43be
00000260: 7bc9 f73d 4241 223e 468a 6c3b b041 82be
00000270: 1424 363e ca8b bebd 9b11 26bd 2c4f 743e
00000280: 1922 983d 1fe6 163e 1ad7 92bd dc21 223e
00000290: 0d42 453d 60be 43bd 8df2 fb3b cdf6 393e
000002a0: b27e 413e 8cc2 18be c63e ddbd bb49 0fbd
000002b0: c7ea f63d 6dcf 5bbe 01e1 183d 2080 42be
000002c0: 4e2c 593d 35c9 dcbd ef14 843e 5a31 a4ba
000002d0: 1c2b 84be cf84 20be 45b2 74bb b952 193d
000002e0: 7b65 9c3d b357 10bb 7e52 253e aba8 60bd
000002f0: a8ff 28bd 6f77 9cbc 6a14 eebb 67ac 8abe
00000300: 08f2 823e 7404 3e3e 7f0d b73d 0fc2 18be
00000310: e5b2 22be ea88 b63d 58d0 12be e42f cabb
00000320: 8d95 7ebe fc14 993b 7ac6 4fbd 69ef 4c3e
00000330: 25c2 5bbe dd9d c03e 0670 623d ad80 563d
00000340: a4e3 3c3e 50f1 8c3e 483b af3d a3eb 95bd
00000350: e22b 71bd 0b3e 1d3e 8774 423d ac61 6b3e
00000360: 6675 cf3c 1573 163e cb9a 313e d190 d83d
00000370: f8cc a5bd 3602 14be 8c5c ffbd 127b 943d
00000380: 1b8d 03bd e842 f0bd 353d d93e 6f68 b4bd
00000390: ae65 263e 7dad 17be f1c8 80be 46d4 d93d
000003a0: 7bda a7be b213 4fbc 9e0f e23e 032a ddbc
000003b0: 0194 253e 042d 1d3e 884c fd3d a3ca 803e
000003c0: 1bb5 1ebe 0d13 cbbb f667 943d 8d63 6cbd
000003d0: c71b 39bd e118 fd3d 7f6b 96bd 0856 9ebd
000003e0: c91d 5b3e ffcc a73b 0cfc 95be 014f 45be
000003f0: cbf1 1dbe db9b 273e 77e8 75bb 1c13 b9bd
0.16746576 -0.20734875 -0.17739202 -0.113075875 0.054447666 0.036797434 -0.17443863 0.17837529
-0.28232282 0.10868114 -0.08975906 -0.15706573 0.14297494 -0.031085763 -0.006844513 -0.23426242
-0.020517575 0.009719542 -0.13761418 -0.27406302 0.069030665 -0.26210463 0.3801902 0.1313006
-0.12614097 -0.08506019 -0.033835273 0.21937095 -0.13944364 0.17253864 0.23180047 -0.041652676
0.13232476 0.13011907 0.2351178 0.0039477968 -0.3140378 -0.1288476 -0.008903601 0.12120284
0.015059514 -0.010209501 -0.017305102 0.33222643 0.08830182 -0.025219493 -0.075288974 0.18073094
-0.076099575 -0.15845694 0.018994432 -0.32658896 -0.033544254 -0.04542883 -0.055480987 -0.049356338
0.014334037 -0.045521263 -0.026728382 0.085377865 -0.16956367 0.24887145 0.038510922 0.041070163
0.40641293 0.64115787 0.17807156 0.062167536 0.14328107 0.024846256 0.24393514 0.34232813
-0.13062152 0.32552975 0.07360941 0.06298753 0.27850875 0.15201284 -0.015453445 0.027401656
0.20051035 0.09326249 0.07615299 0.06610264 0.020542687 0.48692802 0.19629489 0.07985326
0.017169565 0.12403491 0.2765226 0.25524306 0.058936406 0.020462777 0.25179592 0.24066234
0.2828153 0.24602292 0.2189581 0.22603354 0.022340033 0.37450364 0.15015177 0.088091284
0.1636153 0.15409204 0.37278154 0.15772882 0.15143935 0.31345627 0.07768425 -0.020800378
0.22648685 0.07684002 0.29967698 0.034856256 0.04278593 0.14582531 0.210693 0.0035759353
-0.047037646 0.22252686 -0.056451622 0.10606646 -0.114721075 0.25703093 0.22553524 0.06944176
-0.013853288 -0.10389783 -0.026141465 0.10377482 0.094251685 0.14013378 0.0500762 0.11419516
0.06157015 0.09261327 -0.02180701 -0.099057235 -0.1713467 -0.22611707 0.027871188 -0.10548682
0.25594977 -0.10339785 0.046445638 0.067780614 0.16424227 -0.12188263 0.19153707 -0.19120933
0.12098976 0.15845206 0.003609316 -0.2544074 0.177872 -0.093040064 -0.040544134 0.23858327
0.074283786 0.14736222 -0.071699336 0.15833229 0.048158694 -0.047788978 0.0076888264 0.18160553
0.18895987 -0.14917964 -0.10802989 -0.034982424 0.12056499 -0.21465845 0.037323955 -0.18994188
0.053020768 -0.10780565 0.2579722 -0.0012526915 -0.2581414 -0.15675662 -0.0037337702 0.037432406
0.07636543 -0.002202493 0.1614475 -0.054848354 -0.041259438 -0.01909992 -0.007265617 -0.27084658
0.2557528 0.18556386 0.08938121 -0.14917777 -0.15888555 0.08912833 -0.1433729 -0.00617026
-0.24861737 0.004671691 -0.05072639 0.20013203 -0.21460779 0.3762044 0.055282615 0.05236881
0.18446213 0.27527857 0.08556229 -0.07320335 -0.05887974 0.15355699 0.04747441 0.22986478
0.025324535 0.14692338 0.17344205 0.105744965 -0.08095735 -0.14453968 -0.12468824 0.07250036
-0.03211699 -0.11731511 0.4242951 -0.088089816 0.16249725 -0.14812274 -0.25153306 0.10636191
-0.32783875 -0.012638973 0.4415254 -0.026997572 0.1616974 0.15349203 0.12368113 0.251546
-0.15498774 -0.0061973394 0.072463915 -0.057712127 -0.045192506 0.12358261 -0.07344722 -0.07731253
0.21398081 0.005120873 -0.2929386 -0.19268419 -0.15424268 0.16368048 -0.0037522593 -0.09036848
